…
 Sequential函数，把操作都整合起来了\n        self.model1 = Sequential(\n        Conv2d(3,32,kernel_size=5,padding=2),\n        MaxPool2d(2),\n        Conv2d(32,32,kernel_size=5,padding=2),\n        MaxPool2d(2),\n        Conv2d(32,64,kernel_size=5,padding=2),\n        MaxPool2d(2),\n        Flatten(),\n        Linear(1024, 64),\n        Linear(64,10),\n        )\n\n    def forward(self,x):\n        x = self.model1(x)\n        return x\n\nXTH =xth()\nprint(XTH)\n# batchsize，通道数，大小32x32\ninput = torch.ones((64,3,32,32))\noutput = XTH(input)\nprint(output.shape)\n\n# 结果\nxth(\n  (model1): Sequential(\n    (0): Conv2d(3, 32, kernel_size=(5, 5), stride=(1, 1), padding=(2, 2))\n    (1): MaxPool2d(kernel_size=2, stride=2, padding=0, dilation=1, ceil_mode=False)\n    (2): Conv2d(32, 32, kernel_size=(5, 5), stride=(1, 1), padding=(2, 2))\n    (3): MaxPool2d(kernel_size=2, stride=2, padding=0, dilation=1, ceil_mode=False)\n    (4): Conv2d(32, 64, kernel_size=(5, 5), stride=(1, 1), padding=(2, 2))\n    (5): MaxPool2d(kernel_size=2, stride=2, padding=0, dilation=1, ceil_mode=False)\n    (6): Flatten(start_dim=1, end_dim=-1)\n    (7): Linear(in_features=1024, out_features=64, bias=True)\n    (8): Linear(in_features=64, out_features=10, bias=True)\n  )\n)\ntorch.Size([64, 10])\n","Properties":{"id":""}},{"Type":"NodeCodeBlockFenceCloseMarker","Data":"```","CodeBlockFenceLen":3,"Properties":{"id":""}}]},{"ID":"20220618222650-v0iqn0z","Type":"NodeHeading","HeadingLevel":2,"Properties":{"id":"20220618222650-v0iqn0z","updated":"20220618222650"},"Children":[{"Type":"NodeHeadingC8hMarker","Data":"## ","
…
"Properties":{"id":""}},{"Type":"NodeCodeBlockCode","Data":"import torchvision\nfrom torch import nn\n\nvgg16_false = torchvision.models.vgg16(pretrained=False)\nvgg16_true = torchvision.models.vgg16(pretrained=True)\n\nprint(vgg16_true)\n\n# 对vgg现有模型进行直接修改 可以再最后看到有一行add_linear\nvgg16_true.add_module(\"add_linear\",nn.Linear(1000,10))\nprint(vgg16_true)\n\n# 想在classifier中进行增加\nvgg16_true.classifier。add_module(\"add_linear\",nn.Linear(1000,10))\nprint(vgg16_true)\n\n# 想直接修改参数\nvgg16_false.classifier[6] = nn.Linear(4096, 10)\nprint(vgg16_false)\n\n\n\n\n# 部分结果\n (classifier): Sequential(\n    (0): Linear(in_features=25088, out_features=4096, bias=True)\n    (1): ReLU(inplace=True)\n    (2): Dropout(p=0.5, inplace=False)\n    (3): Linear(in_features=4096, out_features=4096, bias=True)\n    (4): ReLU(inplace=True)\n    (5): Dropout(p=0.5, inplace=False)\n    (6): Linear(in_features=4096, out_features=1000, bias=True)\n  )\n  (add_linear): Linear(in_features=1000, out_features=10, bias=True)\n)\n# 在classifier中添加成功\n  (classifier): Sequential(\n    (0): Linear(in_features=25088, out_features=4096, bias=True)\n    (1): ReLU(inplace=True)\n    (2): Dropout(p=0.5, inplace=False)\n    (3): Linear(in_features=4096, out_features=4096, bias=True)\n    (4): ReLU(inplace=True)\n    (5): Dropout(p=0.5, inplace=False)\n    (6): Linear(in_features=4096, out_features=1000, bias=True)\n    (add_linear): Linear(in_features=1000, out_features=10, bias=True)\n  )\n)\n\n# 直接修改参数的结果\n(classifier): Sequential(\n    (0): Linear(in_features=25088, out_features=4096, bias=True)\n    (1): ReLU(inplace=True)\n    (2): Dropout(p=0.5, inplace=False)\n    (3): Linear(in_features=4096, out_features=4096, bias=True)\n    (4): ReLU(inplace=True)\n    (5): Dropout(p=0.5, inplace=False)\n    (6): Linear(in_features=4096, out_features=10, bias=True)\n  )\n)\n","Properties":{"id":""}},{"Type":"NodeCodeBlockFenceCloseMarker","Data":"```","CodeBlockFenceLen":3,"Properties":{"id":""}}]},{"ID":"20220618222659-uv63i09","Type":"NodeHeading","HeadingLevel":2,"Properties":{"id":"20220618222659-uv63i09","updated":"20220618222659"},"Children":[{"Type":"NodeHeadingC8hMarker","Data":"## ","Properties":{"id":""
…
